data/optimization_guide_model_store/39/E6DC4029A1E4B4C1/13ECF9D2023A1AB8/model.tflite (tflite, 2096 bytes, 2 tensors)

sequential_1/input_norm/batchnorm/mul_1;sequential_1/input_norm/batchnorm/add_1;sequential_1/dense_0/MatMul;sequential_1/re_lu_1/Relu;sequential_1/dense_0/BiasAdd f4 [3, 17]
0.28083304 -0.36626777 -0.1418154 -0.5161459 -0.2992809 0.0054872613 -0.36889598 0.067836046
0.28523192 0.3464723 0.021153066 -0.15469518 0.05860504 -0.16737315 0.38722646 -0.088140704
0.49511695 -0.16152447 0.37830177 0.35831615 -0.50918126 0.097880006 -0.24677831 0.49602968
0.3601912 0.47041774 -0.45469186 0.04232073 -0.3266336 0.48346785 0.4679175 0.42065945
-0.5336185 0.39736602 -0.05302377 0.4178437 -0.35559005 0.503962 0.3981731 -0.08433247
-0.095232494 0.36115012 0.50335455 0.11012544 0.16958383 -0.39998698 0.082133174 0.5084556
0.24700099 0.33580118 0.25155124
00000000: 59c9 8f3e 7387 bbbe 0e38 11be 2322 04bf
00000010: 593b 99be 7cce b33b efdf bcbe a0ed 8a3d
00000020: eb09 923e d164 b13e 3249 ad3c 6a68 1ebe
00000030: d70b 703d de63 2bbe 8c42 c63e 1d83 b4bd
00000040: f87f fd3e ac66 25be c5b0 c13e 3775 b73e
00000050: b459 02bf 5075 c83d 74b3 7cbe 9af7 fd3e
00000060: fb6a b83e 98da f03e 5fcd e8be 8058 2d3d
00000070: 853c a7be 1989 f73e e292 ef3e ad60 d73e
00000080: 399b 08bf 8f73 cb3e 742f 59bd 9cef d53e
00000090: e60f b6be a703 013f 58dd cb3e 81b6 acbd
000000a0: 4109 c3bd abe8 b83e d8db 003f 7289 e13d
000000b0: 62a7 2d3e 18cb ccbe 7035 a83d 252a 023f
000000c0: d4ed 7c3e 22ee ab3e 53cb 803e

sequential_1/batch_norm_0/batchnorm/mul_1;sequential_1/batch_norm_0/batchnorm/add_1;sequential_1/output/MatMul;sequential_1/output/BiasAdd f4 [1, 3]
0.7935045 0.5977343 -0.5274294
00000000: 1c23 4b3f 1d05 193f 9d05 07bf
